…
  | Name  | Type                     | Params
---------------------------------------------------
0 | model | FullyShardedDataParallel | 357 M 
---------------------------------------------------
357 M     Trainable params
0         Non-trainable params
357 M     Total params
1,430.581 Total estimated model params size (MB)
My fsdp model  FullyShardedDataParallel(
  (_fsdp_wrapped_module): FlattenParamsWrapper(
    (_fpw_module): FLAVAForPreTraining(
      (model): FLAVAModel(
        (image_encoder): ImageTransformer(
          (embeddings): ImageEmbeddings(
            (patch_embeddings): PatchEmbeddings(
              (projection): Conv2d(3, 768, kernel_size=(16, 16), stride=(16, 16))
            )
            (dropout): Dropout(p=0.0, inplace=False)
          )
          (encoder): FLAVATransformerEncoder(
            (layer): ModuleList(
              (0): FullyShardedDataParallel(
                (_fsdp_wrapped_module): FlattenParamsWrapper(
                  (_fpw_module): FLAVATransformerLayer(
                    (attention): FLAVAAttention(
                      (attention): FLAVASelfAttention(
                        (query): Linear(in_features=768, out_features=768, bias=True)
                        (key): Linear(in_features=768, out_features=768, bias=True)
                        (value): Linear(in_features=768, out_features=768, bias=True)
                        (dropout): Dropout(p=0.0, inplace=False)
                      )
                      (output): Linear(in_features=768, out_features=768, bias=True)
                      (dropout): Dropout(p=0.0, inplace=False)
                    )
                    (intermediate): Linear(in_features=768, out_features=3072, bias=True)
                    (output): Linear(in_features=3072, out_features=768, bias=True)
                    (dropout): Dropout(p=0.0, inplace=False)
                    (layernorm_before): Fp32LayerNorm((768,), eps=1e-12, elementwise_affine=True)
                    (layernorm_after): Fp32LayerNorm((768,), eps=1e-12, elementwise_affine=True)
                  )
                )
              )
              (1): FullyShardedDataParallel(
                (_fsdp_wrapped_module): FlattenParamsWrapper(
                  (_fpw_module): FLAVATransformerLayer(
                    (attention): FLAVAAttention(
                      (attention): FLAVASelfAttention(
                        (query): Linear(in_features=768, out_features=768, bias=True)
                        (key): Linear(in_features=768, out_features=768, bias=True)
                        (value): Linear(in_features=768, out_features=768, bias=True)
                        (dropout): Dropout(p=0.0, inplace=False)
                      )
                      (output): Linear(in_features=768, out_features=768, bias=True)
                      (dropout): Dropout(p=0.0, inplace=False)
                    )
                    (intermediate): Linear(in_features=768, out_features=3072, bias=True)
                    (output): Linear(in_features=3072, out_features=768, bias=True)
                    (dropout): Dropout(p=0.0, inplace=False)
                    (layernorm_before): Fp32LayerNorm((768,), eps=1e-12, elementwise_affine=True)
                    (layernorm_after): Fp32LayerNorm((768,), eps=1e-12, elementwise_affine=True)
                  )
                )
              )
              (2): FullyShardedDataParallel(
                (_fsdp_wrapped_module): FlattenParamsWrapper(
                  (_fpw_module): FLAVATransformerLayer(
                    (attention): FLAVAAttention(
                      (attention): FLAVASelfAttention(
                        (query): Linear(in_features=768, out_features=768, bias=True)
                        (key): Linear(in_features=768, out_features=768, bias=True)
                        (value): Linear(in_features=768, out_features=768, bias=True)
                        (dropout): Dropout(p=0.0, inplace=False)
                      )
                      (output): Linear(in_features=768, out_features=768, bias=True)
                      (dropout): Dropout(p=0.0, inplace=False)
                    )
                    (intermediate): Linear(in_features=768, out_features=3072, bias=True)
                    (output): Linear(in_features=3072, out_features=768, bias=True)
                    (dropout): Dropout(p=0.0, inplace=False)
                    (layernorm_before): Fp32LayerNorm((768,), eps=1e-12, elementwise_affine=True)
                    (layernorm_after): Fp32LayerNorm((768,), eps=1e-12, elementwise_affine=True)
                  )
                )
              )
              (3): FullyShardedDataParallel(
                (_fsdp_wrapped_module): FlattenParamsWrapper(
                  (_fpw_module): FLAVATransformerLayer(
                    (attention): FLAVAAttention(
                      (attention): FLAVASelfAttention(
                        (query): Linear(in_features=768, out_features=768, bias=True)
                        (key): Linear(in_features=768, out_features=768, bias=True)
                        (value): Linear(in_features=768, out_features=768, bias=True)
                        (dropout): Dropout(p=0.0, inplace=False)
                      )
                      (output): Linear(in_features=768, out_features=768, bias=True)
                      (dropout): Dropout(p=0.0, inplace=False)
                    )
                    (intermediate): Linear(in_features=768, out_features=3072, bias=True)
                    (output): Linear(in_features=3072, out_features=768, bias=True)
                    (dropout): Dropout(p=0.0, inplace=False)
                    (layernorm_before): Fp32LayerNorm((768,), eps=1e-12, elementwise_affine=True)
                    (layernorm_after): Fp32LayerNorm((768,), eps=1e-12, elementwise_affine=True)
                  )
                )
              )
              (4): FullyShardedDataParallel(
                (_fsdp_wrapped_module): FlattenParamsWrapper(
                  (_fpw_module): FLAVATransformerLayer(
                    (attention): FLAVAAttention(
                      (attention): FLAVASelfAttention(
                        (query): Linear(in_features=768, out_features=768, bias=True)
                        (key): Linear(in_features=768, out_features=768, bias=True)
                        (value): Linear(in_features=768, out_features=768, bias=True)
                        (dropout): Dropout(p=0.0, inplace=False)
                      )
                      (output): Linear(in_features=768, out_features=768, bias=True)
                      (dropout): Dropout(p=0.0, inplace=False)
                    )
                    (intermediate): Linear(in_features=768, out_features=3072, bias=True)
                    (output): Linear(in_features=3072, out_features=768, bias=True)
                    (dropout): Dropout(p=0.0, inplace=False)
                    (layernorm_before): Fp32LayerNorm((768,), eps=1e-12, elementwise_affine=True)
                    (layernorm_after): Fp32LayerNorm((768,), eps=1e-12, elementwise_affine=True)
                  )
                )
              )
              (5): FullyShardedDataParallel(
                (_fsdp_wrapped_module): FlattenParamsWrapper(
                  (_fpw_module): FLAVATransformerLayer(
                    (attention): FLAVAAttention(
                      (attention): FLAVASelfAttention(
                        (query): Linear(in_features=768, out_features=768, bias=True)
                        (key): Linear(in_features=768, out_features=768, bias=True)
                        (value): Linear(in_features=768, out_features=768, bias=True)
                        (dropout): Dropout(p=0.0, inplace=False)
                      )
                      (output): Linear(in_features=768, out_features=768, bias=True)
                      (dropout): Dropout(p=0.0, inplace=False)
                    )
                    (intermediate): Linear(in_features=768, out_features=3072, bias=True)
                    (output): Linear(in_features=3072, out_features=768, bias=True)
                    (dropout): Dropout(p=0.0, inplace=False)
                    (layernorm_before): Fp32LayerNorm((768,), eps=1e-12, elementwise_affine=True)
                    (layernorm_after): Fp32LayerNorm((768,), eps=1e-12, elementwise_affine=True)
                  )
                )
              )
              (6): FullyShardedDataParallel(
                (_fsdp_wrapped_module): FlattenParamsWrapper(
                  (_fpw_module): FLAVATransformerLayer(
                    (attention): FLAVAAttention(
                      (attention): FLAVASelfAttention(
                        (query): Linear(in_features=768, out_features=768, bias=True)
                        (key): Linear(in_features=768, out_features=768, bias=True)
                        (value): Linear(in_features=768, out_features=768, bias=True)
                        (dropout): Dropout(p=0.0, inplace=False)
                      )
                      (output): Linear(in_features=768, out_features=768, bias=True)
                      (dropout): Dropout(p=0.0, inplace=False)
                    )
                    (intermediate): Linear(in_features=768, out_features=3072, bias=True)
                    (output): Linear(in_features=3072, out_features=768, bias=True)
                    (dropout): Dropout(p=0.0, inplace=False)
                    (layernorm_before): Fp32LayerNorm((768,), eps=1e-12, elementwise_affine=True)
                    (layernorm_after): Fp32LayerNorm((768,), eps=1e-12, elementwise_affine=True)
                  )
                )
              )
              (7): FullyShardedDataParallel(
                (_fsdp_wrapped_module): FlattenParamsWrapper(
                  (_fpw_module): FLAVATransformerLayer(
                    (attention): FLAVAAttention(
                      (attention): FLAVASelfAttention(
                        (query): Linear(in_features=768, out_features=768, bias=True)
                        (key): Linear(in_features=768, out_features=768, bias=True)
                        (value): Linear(in_features=768, out_features=768, bias=True)
                        (dropout): Dropout(p=0.0, inplace=False)
                      )
                      (output): Linear(in_features=768, out_features=768, bias=True)
                      (dropout): Dropout(p=0.0, inplace=False)
                    )
                    (intermediate): Linear(in_features=768, out_features=3072, bias=True)
                    (output): Linear(in_features=3072, out_features=768, bias=True)
                    (dropout): Dropout(p=0.0, inplace=False)
                    (layernorm_before): Fp32LayerNorm((768,), eps=1e-12, elementwise_affine=True)
                    (layernorm_after): Fp32LayerNorm((768,), eps=1e-12, elementwise_affine=True)
                  )
                )
              )
              (8): FullyShardedDataParallel(
                (_fsdp_wrapped_module): FlattenParamsWrapper(
                  (_fpw_module): FLAVATransformerLayer(
                    (attention): FLAVAAttention(
                      (attention): FLAVASelfAttention(
                        (query): Linear(in_features=768, out_features=768, bias=True)
                        (key): Linear(in_features=768, out_features=768, bias=True)
                        (value): Linear(in_features=768, out_features=768, bias=True)
                        (dropout): Dropout(p=0.0, inplace=False)
                      )
                      (output): Linear(in_features=768, out_features=768, bias=True)
                      (dropout): Dropout(p=0.0, inplace=False)
                    )
                    (intermediate): Linear(in_features=768, out_features=3072, bias=True)
                    (output): Linear(in_features=3072, out_features=768, bias=True)
                    (dropout): Dropout(p=0.0, inplace=False)
                    (layernorm_before): Fp32LayerNorm((768,), eps=1e-12, elementwise_affine=True)
                    (layernorm_after): Fp32LayerNorm((768,), eps=1e-12, elementwise_affine=True)
                  )
                )
              )
              (9): FullyShardedDataParallel(
                (_fsdp_wrapped_module): FlattenParamsWrapper(
                  (_fpw_module): FLAVATransformerLayer(
                    (attention): FLAVAAttention(
                      (attention): FLAVASelfAttention(
                        (query): Linear(in_features=768, out_features=768, bias=True)
                        (key): Linear(in_features=768, out_features=768, bias=True)
                        (value): Linear(in_features=768, out_features=768, bias=True)
                        (dropout): Dropout(p=0.0, inplace=False)
                      )
                      (output): Linear(in_features=768, out_features=768, bias=True)
                      (dropout): Dropout(p=0.0, inplace=False)
                    )
                    (intermediate): Linear(in_features=768, out_features=3072, bias=True)
                    (output): Linear(in_features=3072, out_features=768, bias=True)
                    (dropout): Dropout(p=0.0, inplace=False)
                    (layernorm_before): Fp32LayerNorm((768,), eps=1e-12, elementwise_affine=True)
                    (layernorm_after): Fp32LayerNorm((768,), eps=1e-12, elementwise_affine=True)
                  )
                )
              )
              (10): FullyShardedDataParallel(
                (_fsdp_wrapped_module): FlattenParamsWrapper(
                  (_fpw_module): FLAVATransformerLayer(
                    (attention): FLAVAAttention(
                      (attention): FLAVASelfAttention(
                        (query): Linear(in_features=768, out_features=768, bias=True)
                        (key): Linear(in_features=768, out_features=768, bias=True)
                        (value): Linear(in_features=768, out_features=768, bias=True)
                        (dropout): Dropout(p=0.0, inplace=False)
                      )
                      (output): Linear(in_features=768, out_features=768, bias=True)
                      (dropout): Dropout(p=0.0, inplace=False)
                    )
                    (intermediate): Linear(in_features=768, out_features=3072, bias=True)
                    (output): Linear(in_features=3072, out_features=768, bias=True)
                    (dropout): Dropout(p=0.0, inplace=False)
                    (layernorm_before): Fp32LayerNorm((768,), eps=1e-12, elementwise_affine=True)
                    (layernorm_after): Fp32LayerNorm((768,), eps=1e-12, elementwise_affine=True)
                  )
                )
              )
              (11): FullyShardedDataParallel(
                (_fsdp_wrapped_module): FlattenParamsWrapper(
                  (_fpw_module): FLAVATransformerLayer(
                    (attention): FLAVAAttention(
                      (attention): FLAVASelfAttention(
                        (query): Linear(in_features=768, out_features=768, bias=True)
                        (key): Linear(in_features=768, out_features=768, bias=True)
                        (value): Linear(in_features=768, out_features=768, bias=True)
                        (dropout): Dropout(p=0.0, inplace=False)
                      )
                      (output): Linear(in_features=768, out_features=768, bias=True)
                      (dropout): Dropout(p=0.0, inplace=False)
                    )
                    (intermediate): Linear(in_features=768, out_features=3072, bias=True)
                    (output): Linear(in_features=3072, out_features=768, bias=True)
                    (dropout): Dropout(p=0.0, inplace=False)
                    (layernorm_before): Fp32LayerNorm((768,), eps=1e-12, elementwise_affine=True)
                    (layernorm_after): Fp32LayerNorm((768,), eps=1e-12, elementwise_affine=True)
                  )
                )
              )
            )
          )
          (layernorm): Fp32LayerNorm((768,), eps=1e-12, elementwise_affine=True)
          (pooler): Pooler(
            (dense): Linear(in_features=768, out_features=768, bias=True)
            (activation): Tanh()
          )
        )
        (text_encoder): TextTransformer(
          (embeddings): TextEmbeddings(
            (word_embeddings): Embedding(30522, 768, padding_idx=0)
            (position_embeddings): Embedding(512, 768)
            (token_type_embeddings): Embedding(2, 768)
            (LayerNorm): LayerNorm((768,), eps=1e-12, elementwise_affine=True)
            (dropout): Dropout(p=0.0, inplace=False)
          )
          (encoder): FLAVATransformerEncoder(
            (layer): ModuleList(
              (0): FullyShardedDataParallel(
                (_fsdp_wrapped_module): FlattenParamsWrapper(
                  (_fpw_module): FLAVATransformerLayer(
                    (attention): FLAVAAttention(
                      (attention): FLAVASelfAttention(
                        (query): Linear(in_features=768, out_features=768, bias=True)
                        (key): Linear(in_features=768, out_features=768, bias=True)
                        (value): Linear(in_features=768, out_features=768, bias=True)
                        (dropout): Dropout(p=0.0, inplace=False)
                      )
                      (output): Linear(in_features=768, out_features=768, bias=True)
                      (dropout): Dropout(p=0.0, inplace=False)
                    )
                    (intermediate): Linear(in_features=768, out_features=3072, bias=True)
                    (output): Linear(in_features=3072, out_features=768, bias=True)
                    (dropout): Dropout(p=0.0, inplace=False)
                    (layernorm_before): Fp32LayerNorm((768,), eps=1e-12, elementwise_affine=True)
                    (layernorm_after): Fp32LayerNorm((768,), eps=1e-12, elementwise_affine=True)
                  )
                )
              )
              (1): FullyShardedDataParallel(
                (_fsdp_wrapped_module): FlattenParamsWrapper(
                  (_fpw_module): FLAVATransformerLayer(
                    (attention): FLAVAAttention(
                      (attention): FLAVASelfAttention(
                        (query): Linear(in_features=768, out_features=768, bias=True)
                        (key): Linear(in_features=768, out_features=768, bias=True)
                        (value): Linear(in_features=768, out_features=768, bias=True)
                        (dropout): Dropout(p=0.0, inplace=False)
                      )
                      (output): Linear(in_features=768, out_features=768, bias=True)
                      (dropout): Dropout(p=0.0, inplace=False)
                    )
                    (intermediate): Linear(in_features=768, out_features=3072, bias=True)
                    (output): Linear(in_features=3072, out_features=768, bias=True)
                    (dropout): Dropout(p=0.0, inplace=False)
                    (layernorm_before): Fp32LayerNorm((768,), eps=1e-12, elementwise_affine=True)
                    (layernorm_after): Fp32LayerNorm((768,), eps=1e-12, elementwise_affine=True)
                  )
                )
              )
              (2): FullyShardedDataParallel(
                (_fsdp_wrapped_module): FlattenParamsWrapper(
                  (_fpw_module): FLAVATransformerLayer(
                    (attention): FLAVAAttention(
                      (attention): FLAVASelfAttention(
                        (query): Linear(in_features=768, out_features=768, bias=True)
                        (key): Linear(in_features=768, out_features=768, bias=True)
                        (value): Linear(in_features=768, out_features=768, bias=True)
                        (dropout): Dropout(p=0.0, inplace=False)
                      )
                      (output): Linear(in_features=768, out_features=768, bias=True)
                      (dropout): Dropout(p=0.0, inplace=False)
                    )
                    (intermediate): Linear(in_features=768, out_features=3072, bias=True)
                    (output): Linear(in_features=3072, out_features=768, bias=True)
                    (dropout): Dropout(p=0.0, inplace=False)
                    (layernorm_before): Fp32LayerNorm((768,), eps=1e-12, elementwise_affine=True)
                    (layernorm_after): Fp32LayerNorm((768,), eps=1e-12, elementwise_affine=True)
                  )
                )
              )
              (3): FullyShardedDataParallel(
                (_fsdp_wrapped_module): FlattenParamsWrapper(
                  (_fpw_module): FLAVATransformerLayer(
                    (attention): FLAVAAttention(
                      (attention): FLAVASelfAttention(
                        (query): Linear(in_features=768, out_features=768, bias=True)
                        (key): Linear(in_features=768, out_features=768, bias=True)
                        (value): Linear(in_features=768, out_features=768, bias=True)
                        (dropout): Dropout(p=0.0, inplace=False)
                      )
                      (output): Linear(in_features=768, out_features=768, bias=True)
                      (dropout): Dropout(p=0.0, inplace=False)
                    )
                    (intermediate): Linear(in_features=768, out_features=3072, bias=True)
                    (output): Linear(in_features=3072, out_features=768, bias=True)
                    (dropout): Dropout(p=0.0, inplace=False)
                    (layernorm_before): Fp32LayerNorm((768,), eps=1e-12, elementwise_affine=True)
                    (layernorm_after): Fp32LayerNorm((768,), eps=1e-12, elementwise_affine=True)
                  )
                )
              )
              (4): FullyShardedDataParallel(
                (_fsdp_wrapped_module): FlattenParamsWrapper(
                  (_fpw_module): FLAVATransformerLayer(
                    (attention): FLAVAAttention(
                      (attention): FLAVASelfAttention(
                        (query): Linear(in_features=768, out_features=768, bias=True)
                        (key): Linear(in_features=768, out_features=768, bias=True)
                        (value): Linear(in_features=768, out_features=768, bias=True)
                        (dropout): Dropout(p=0.0, inplace=False)
                      )
                      (output): Linear(in_features=768, out_features=768, bias=True)
                      (dropout): Dropout(p=0.0, inplace=False)
                    )
                    (intermediate): Linear(in_features=768, out_features=3072, bias=True)
                    (output): Linear(in_features=3072, out_features=768, bias=True)
                    (dropout): Dropout(p=0.0, inplace=False)
                    (layernorm_before): Fp32LayerNorm((768,), eps=1e-12, elementwise_affine=True)
                    (layernorm_after): Fp32LayerNorm((768,), eps=1e-12, elementwise_affine=True)
                  )
                )
              )
              (5): FullyShardedDataParallel(
                (_fsdp_wrapped_module): FlattenParamsWrapper(
                  (_fpw_module): FLAVATransformerLayer(
                    (attention): FLAVAAttention(
                      (attention): FLAVASelfAttention(
                        (query): Linear(in_features=768, out_features=768, bias=True)
                        (key): Linear(in_features=768, out_features=768, bias=True)
                        (value): Linear(in_features=768, out_features=768, bias=True)
                        (dropout): Dropout(p=0.0, inplace=False)
                      )
                      (output): Linear(in_features=768, out_features=768, bias=True)
                      (dropout): Dropout(p=0.0, inplace=False)
                    )
                    (intermediate): Linear(in_features=768, out_features=3072, bias=True)
                    (output): Linear(in_features=3072, out_features=768, bias=True)
                    (dropout): Dropout(p=0.0, inplace=False)
                    (layernorm_before): Fp32LayerNorm((768,), eps=1e-12, elementwise_affine=True)
                    (layernorm_after): Fp32LayerNorm((768,), eps=1e-12, elementwise_affine=True)
                  )
                )
              )
              (6): FullyShardedDataParallel(
                (_fsdp_wrapped_module): FlattenParamsWrapper(
                  (_fpw_module): FLAVATransformerLayer(
                    (attention): FLAVAAttention(
                      (attention): FLAVASelfAttention(
                        (query): Linear(in_features=768, out_features=768, bias=True)
                        (key): Linear(in_features=768, out_features=768, bias=True)
                        (value): Linear(in_features=768, out_features=768, bias=True)
                        (dropout): Dropout(p=0.0, inplace=False)
                      )
                      (output): Linear(in_features=768, out_features=768, bias=True)
                      (dropout): Dropout(p=0.0, inplace=False)
                    )
                    (intermediate): Linear(in_features=768, out_features=3072, bias=True)
                    (output): Linear(in_features=3072, out_features=768, bias=True)
                    (dropout): Dropout(p=0.0, inplace=False)
                    (layernorm_before): Fp32LayerNorm((768,), eps=1e-12, elementwise_affine=True)
                    (layernorm_after): Fp32LayerNorm((768,), eps=1e-12, elementwise_affine=True)
                  )
                )
              )
              (7): FullyShardedDataParallel(
                (_fsdp_wrapped_module): FlattenParamsWrapper(
                  (_fpw_module): FLAVATransformerLayer(
                    (attention): FLAVAAttention(
                      (attention): FLAVASelfAttention(
                        (query): Linear(in_features=768, out_features=768, bias=True)
                        (key): Linear(in_features=768, out_features=768, bias=True)
                        (value): Linear(in_features=768, out_features=768, bias=True)
                        (dropout): Dropout(p=0.0, inplace=False)
                      )
                      (output): Linear(in_features=768, out_features=768, bias=True)
                      (dropout): Dropout(p=0.0, inplace=False)
                    )
                    (intermediate): Linear(in_features=768, out_features=3072, bias=True)
                    (output): Linear(in_features=3072, out_features=768, bias=True)
                    (dropout): Dropout(p=0.0, inplace=False)
                    (layernorm_before): Fp32LayerNorm((768,), eps=1e-12, elementwise_affine=True)
                    (layernorm_after): Fp32LayerNorm((768,), eps=1e-12, elementwise_affine=True)
                  )
                )
              )
              (8): FullyShardedDataParallel(
                (_fsdp_wrapped_module): FlattenParamsWrapper(
                  (_fpw_module): FLAVATransformerLayer(
                    (attention): FLAVAAttention(
                      (attention): FLAVASelfAttention(
                        (query): Linear(in_features=768, out_features=768, bias=True)
                        (key): Linear(in_features=768, out_features=768, bias=True)
                        (value): Linear(in_features=768, out_features=768, bias=True)
                        (dropout): Dropout(p=0.0, inplace=False)
                      )
                      (output): Linear(in_features=768, out_features=768, bias=True)
                      (dropout): Dropout(p=0.0, inplace=False)
                    )
                    (intermediate): Linear(in_features=768, out_features=3072, bias=True)
                    (output): Linear(in_features=3072, out_features=768, bias=True)
                    (dropout): Dropout(p=0.0, inplace=False)
                    (layernorm_before): Fp32LayerNorm((768,), eps=1e-12, elementwise_affine=True)
                    (layernorm_after): Fp32LayerNorm((768,), eps=1e-12, elementwise_affine=True)
                  )
                )
              )
              (9): FullyShardedDataParallel(
                (_fsdp_wrapped_module): FlattenParamsWrapper(
                  (_fpw_module): FLAVATransformerLayer(
                    (attention): FLAVAAttention(
                      (attention): FLAVASelfAttention(
                        (query): Linear(in_features=768, out_features=768, bias=True)
                        (key): Linear(in_features=768, out_features=768, bias=True)
                        (value): Linear(in_features=768, out_features=768, bias=True)
                        (dropout): Dropout(p=0.0, inplace=False)
                      )
                      (output): Linear(in_features=768, out_features=768, bias=True)
                      (dropout): Dropout(p=0.0, inplace=False)
                    )
                    (intermediate): Linear(in_features=768, out_features=3072, bias=True)
                    (output): Linear(in_features=3072, out_features=768, bias=True)
                    (dropout): Dropout(p=0.0, inplace=False)
                    (layernorm_before): Fp32LayerNorm((768,), eps=1e-12, elementwise_affine=True)
                    (layernorm_after): Fp32LayerNorm((768,), eps=1e-12, elementwise_affine=True)
                  )
                )
              )
              (10): FullyShardedDataParallel(
                (_fsdp_wrapped_module): FlattenParamsWrapper(
                  (_fpw_module): FLAVATransformerLayer(
                    (attention): FLAVAAttention(
                      (attention): FLAVASelfAttention(
                        (query): Linear(in_features=768, out_features=768, bias=True)
                        (key): Linear(in_features=768, out_features=768, bias=True)
                        (value): Linear(in_features=768, out_features=768, bias=True)
                        (dropout): Dropout(p=0.0, inplace=False)
                      )
                      (output): Linear(in_features=768, out_features=768, bias=True)
                      (dropout): Dropout(p=0.0, inplace=False)
                    )
                    (intermediate): Linear(in_features=768, out_features=3072, bias=True)
                    (output): Linear(in_features=3072, out_features=768, bias=True)
                    (dropout): Dropout(p=0.0, inplace=False)
                    (layernorm_before): Fp32LayerNorm((768,), eps=1e-12, elementwise_affine=True)
                    (layernorm_after): Fp32LayerNorm((768,), eps=1e-12, elementwise_affine=True)
                  )
                )
              )
              (11): FullyShardedDataParallel(
                (_fsdp_wrapped_module): FlattenParamsWrapper(
                  (_fpw_module): FLAVATransformerLayer(
                    (attention): FLAVAAttention(
                      (attention): FLAVASelfAttention(
                        (query): Linear(in_features=768, out_features=768, bias=True)
                        (key): Linear(in_features=768, out_features=768, bias=True)
                        (value): Linear(in_features=768, out_features=768, bias=True)
                        (dropout): Dropout(p=0.0, inplace=False)
                      )
                      (output): Linear(in_features=768, out_features=768, bias=True)
                      (dropout): Dropout(p=0.0, inplace=False)
                    )
                    (intermediate): Linear(in_features=768, out_features=3072, bias=True)
                    (output): Linear(in_features=3072, out_features=768, bias=True)
                    (dropout): Dropout(p=0.0, inplace=False)
                    (layernorm_before): Fp32LayerNorm((768,), eps=1e-12, elementwise_affine=True)
                    (layernorm_after): Fp32LayerNorm((768,), eps=1e-12, elementwise_affine=True)
                  )
                )
              )
            )
          )
          (layernorm): Fp32LayerNorm((768,), eps=1e-12, elementwise_affine=True)
          (pooler): Pooler(
            (dense): Linear(in_features=768, out_features=768, bias=True)
            (activation): Tanh()
          )
        )
        (mm_encoder): FLAVATransformerWithoutEmbeddings(
          (encoder): FLAVATransformerEncoder(
            (layer): ModuleList(
              (0): FullyShardedDataParallel(
                (_fsdp_wrapped_module): FlattenParamsWrapper(
                  (_fpw_module): FLAVATransformerLayer(
                    (attention): FLAVAAttention(
                      (attention): FLAVASelfAttention(
                        (query): Linear(in_features=768, out_features=768, bias=True)
                        (key): Linear(in_features=768, out_features=768, bias=True)
                        (value): Linear(in_features=768, out_features=768, bias=True)
                        (dropout): Dropout(p=0.0, inplace=False)
                      )
                      (output): Linear(in_features=768, out_features=768, bias=True)
                      (dropout): Dropout(p=0.0, inplace=False)
                    )
                    (intermediate): Linear(in_features=768, out_features=3072, bias=True)
                    (output): Linear(in_features=3072, out_features=768, bias=True)
                    (dropout): Dropout(p=0.0, inplace=False)
                    (layernorm_before): Fp32LayerNorm((768,), eps=1e-12, elementwise_affine=True)
                    (layernorm_after): Fp32LayerNorm((768,), eps=1e-12, elementwise_affine=True)
                  )
                )
              )
              (1): FullyShardedDataParallel(
                (_fsdp_wrapped_module): FlattenParamsWrapper(
                  (_fpw_module): FLAVATransformerLayer(
                    (attention): FLAVAAttention(
                      (attention): FLAVASelfAttention(
                        (query): Linear(in_features=768, out_features=768, bias=True)
                        (key): Linear(in_features=768, out_features=768, bias=True)
                        (value): Linear(in_features=768, out_features=768, bias=True)
                        (dropout): Dropout(p=0.0, inplace=False)
                      )
                      (output): Linear(in_features=768, out_features=768, bias=True)
                      (dropout): Dropout(p=0.0, inplace=False)
                    )
                    (intermediate): Linear(in_features=768, out_features=3072, bias=True)
                    (output): Linear(in_features=3072, out_features=768, bias=True)
                    (dropout): Dropout(p=0.0, inplace=False)
                    (layernorm_before): Fp32LayerNorm((768,), eps=1e-12, elementwise_affine=True)
                    (layernorm_after): Fp32LayerNorm((768,), eps=1e-12, elementwise_affine=True)
                  )
                )
              )
              (2): FullyShardedDataParallel(
                (_fsdp_wrapped_module): FlattenParamsWrapper(
                  (_fpw_module): FLAVATransformerLayer(
                    (attention): FLAVAAttention(
                      (attention): FLAVASelfAttention(
                        (query): Linear(in_features=768, out_features=768, bias=True)
                        (key): Linear(in_features=768, out_features=768, bias=True)
                        (value): Linear(in_features=768, out_features=768, bias=True)
                        (dropout): Dropout(p=0.0, inplace=False)
                      )
                      (output): Linear(in_features=768, out_features=768, bias=True)
                      (dropout): Dropout(p=0.0, inplace=False)
                    )
                    (intermediate): Linear(in_features=768, out_features=3072, bias=True)
                    (output): Linear(in_features=3072, out_features=768, bias=True)
                    (dropout): Dropout(p=0.0, inplace=False)
                    (layernorm_before): Fp32LayerNorm((768,), eps=1e-12, elementwise_affine=True)
                    (layernorm_after): Fp32LayerNorm((768,), eps=1e-12, elementwise_affine=True)
                  )
                )
              )
              (3): FullyShardedDataParallel(
                (_fsdp_wrapped_module): FlattenParamsWrapper(
                  (_fpw_module): FLAVATransformerLayer(
                    (attention): FLAVAAttention(
                      (attention): FLAVASelfAttention(
                        (query): Linear(in_features=768, out_features=768, bias=True)
                        (key): Linear(in_features=768, out_features=768, bias=True)
                        (value): Linear(in_features=768, out_features=768, bias=True)
                        (dropout): Dropout(p=0.0, inplace=False)
                      )
                      (output): Linear(in_features=768, out_features=768, bias=True)
                      (dropout): Dropout(p=0.0, inplace=False)
                    )
                    (intermediate): Linear(in_features=768, out_features=3072, bias=True)
                    (output): Linear(in_features=3072, out_features=768, bias=True)
                    (dropout): Dropout(p=0.0, inplace=False)
                    (layernorm_before): Fp32LayerNorm((768,), eps=1e-12, elementwise_affine=True)
                    (layernorm_after): Fp32LayerNorm((768,), eps=1e-12, elementwise_affine=True)
                  )
                )
              )
              (4): FullyShardedDataParallel(
                (_fsdp_wrapped_module): FlattenParamsWrapper(
                  (_fpw_module): FLAVATransformerLayer(
                    (attention): FLAVAAttention(
                      (attention): FLAVASelfAttention(
                        (query): Linear(in_features=768, out_features=768, bias=True)
                        (key): Linear(in_features=768, out_features=768, bias=True)
                        (value): Linear(in_features=768, out_features=768, bias=True)
                        (dropout): Dropout(p=0.0, inplace=False)
                      )
                      (output): Linear(in_features=768, out_features=768, bias=True)
                      (dropout): Dropout(p=0.0, inplace=False)
                    )
                    (intermediate): Linear(in_features=768, out_features=3072, bias=True)
                    (output): Linear(in_features=3072, out_features=768, bias=True)
                    (dropout): Dropout(p=0.0, inplace=False)
                    (layernorm_before): Fp32LayerNorm((768,), eps=1e-12, elementwise_affine=True)
                    (layernorm_after): Fp32LayerNorm((768,), eps=1e-12, elementwise_affine=True)
                  )
                )
              )
              (5): FullyShardedDataParallel(
                (_fsdp_wrapped_module): FlattenParamsWrapper(
                  (_fpw_module): FLAVATransformerLayer(
                    (attention): FLAVAAttention(
                      (attention): FLAVASelfAttention(
                        (query): Linear(in_features=768, out_features=768, bias=True)
                        (key): Linear(in_features=768, out_features=768, bias=True)
                        (value): Linear(in_features=768, out_features=768, bias=True)
                        (dropout): Dropout(p=0.0, inplace=False)
                      )
                      (output): Linear(in_features=768, out_features=768, bias=True)
                      (dropout): Dropout(p=0.0, inplace=False)
                    )
                    (intermediate): Linear(in_features=768, out_features=3072, bias=True)
                    (output): Linear(in_features=3072, out_features=768, bias=True)
                    (dropout): Dropout(p=0.0, inplace=False)
                    (layernorm_before): Fp32LayerNorm((768,), eps=1e-12, elementwise_affine=True)
                    (layernorm_after): Fp32LayerNorm((768,), eps=1e-12, elementwise_affine=True)
                  )
                )
              )
            )
          )
          (layernorm): Fp32LayerNorm((768,), eps=1e-12, elementwise_affine=True)
          (pooler): Pooler(
            (dense): Linear(in_features=768, out_features=768, bias=True)
            (activation): Tanh()
          )
        )
        (image_to_mm_projection): Linear(in_features=768, out_features=768, bias=True)
        (text_to_mm_projection): Linear(in_features=768, out_features=768, bias=True)
      )
      (image_codebook): DalleVAEEncoder(
        (encoder): DalleEncoder(
          (blocks): Sequential(
            (input): DalleConv2d()
            (group_1): Sequential(
              (block_1): DalleEncoderBlock(
                (id_path): Identity()
                (res_path): Sequential(
                  (relu_1): ReLU()
                  (conv_1): DalleConv2d()
…
                  (relu_1): ReLU()
                  (conv_1): DalleConv2d()
                  (relu_2): ReLU()
                  (conv_2): DalleConv2d()
                  (relu_3): ReLU()
                  (conv_3): DalleConv2d()
                  (relu_4): ReLU()
                  (conv_4): DalleConv2d()
                )
              )
            )
            (output): Sequential(
              (relu): ReLU()
              (conv): DalleConv2d()
            )
          )
        )
      )
      (loss): FLAVAPretrainingLoss(
        (contrastive_loss): FLAVAGlobalContrastiveLoss(
          (image_projection): Linear(in_features=768, out_features=768, bias=True)
          (text_projection): Linear(in_features=768, out_features=768, bias=True)
        )
        (mlm_loss): MaskedPredictionLoss(
          (cls): MaskedPredictionHead(
            (dense): Linear(in_features=768, out_features=768, bias=True)
            (layer_norm): Fp32LayerNorm((768,), eps=1e-05, elementwise_affine=True)
            (decoder): Linear(in_features=768, out_features=30522, bias=True)
          )
          (ce_loss): CrossEntropyLoss()
        )
        (mim_loss): MaskedPredictionLoss(
          (cls): MaskedPredictionHead(
            (dense): Linear(in_features=768, out_features=768, bias=True)
            (layer_norm): Fp32LayerNorm((768,), eps=1e-05, elementwise_affine=True)
            (decoder): Linear(in_features=768, out_features=8192, bias=True)
          )
          (ce_loss): CrossEntropyLoss()
        )
        (mmm_loss): ModuleDict(
          (mlm): MaskedPredictionLoss(
            (cls): MaskedPredictionHead(
              (dense): Linear(in_features=768, out_features=768, bias=True)
              (layer_norm): Fp32LayerNorm((768,), eps=1e-05, elementwise_affine=True)
              (decoder): Linear(in_features=768, out_features=30522, bias=True)
            )
            (ce_loss): CrossEntropyLoss()
          )
          (mim): MaskedPredictionLoss(
            (cls): MaskedPredictionHead(
              (dense): Linear(in_features=768, out_features=768, bias=True)
              (layer_norm): Fp32LayerNorm((768,), eps=1e-05, elementwise_affine=True)
              (decoder): Linear(in_features=768, out_features=8192, bias=True)
            )
            (ce_loss): CrossEntropyLoss()
          )
        )
        (itm_loss): ITMLoss(
          (pooler): Pooler(
            (dense): Linear(in_features=768, out_features=768, bias=True)
            (activation): Tanh()
          )
          (cls): TwoWayHead(
            (seq_relationship): Linear(in_features=768, out_features=2, bias=True)
          )
          (ce_loss): CrossEntropyLoss()
        )
      )
    )
  )
)
Training: 0it [00:00, ?it/s]Training: 0it [00:00, ?it/s]Epoch 0: : 0it [00:00, ?it/s]Epoch 0: : 1it [00:01,  1.56s/it]Epoch 0: : 1it [00:01,  1.56s/it]Epoch 0: : 1it [00:01,  1.58s/it, loss=10.6, v_num=1, train/losses/mlm_loss=10.60]Epoch 0: : 2it [00:02,  1.30s/it, 
…
